killaura_model_v5.onnx (onnx, 147286 bytes, 8 tensors)

sequential_14/dense_40/MatMul/ReadVariableOp:0 f4 [32, 1]
00000000: a16e 89be dfae e03d e2e6 4cbe 2489 233e
00000010: 17ad 203e b024 a3be 0602 88be b3f7 fcbe
00000020: ee7a abbe 7673 c6be 662b 2e3e b5e5 803e
00000030: a60d 273e 7999 babe 9a61 96be 2d79 72be
00000040: 1e52 353e 7341 463e 7aac 523e 8f3f 7cbe
00000050: 12ae dbbe df19 90be 6dde 903e eb3e 95be
00000060: 49e4 4d3e 48e5 d6be 8c97 e7be 3501 3f3e
00000070: 188b 3e3e 4f6e 9abe 9ae4 e4be 642e 693e
-0.26842216 0.10970854 -0.2000995 0.15970284 0.15691029 -0.31863928 -0.26564044 -0.4940773
-0.33492225 -0.38759965 0.17008743 0.25175253 0.163138 -0.36445215 -0.2937134 -0.23679037
0.17707106 0.19360904 0.20573607 -0.2463362 -0.42906243 -0.28144738 0.28294697 -0.29149565
0.20106615 -0.41971803 -0.4523281 0.18652804 0.18607748 -0.30162284 -0.4470566 0.22771603

sequential_14/dense_39/MatMul/ReadVariableOp:0 f4 [82, 32]
00000000: ffd2 433e 5bf0 46be 7758 063e 87c1 c33d
00000010: a239 9c3d f018 2ebd f4ef 4ebc c47c df3b
00000020: 7f9e d7bc a27e 9cbc 2469 ef3c 42e8 563d
00000030: 1681 833b 2480 eb3d bae5 47bc 032f 593d
00000040: 2684 293d d0fa 89be 2c75 35be 0c4f 023e
00000050: cbd9 233e ab02 763e c829 56be 719c 8a3e
00000060: d3be bc3d 1ddf 4a3e b601 89bd bd7f 8dbe
00000070: 3669 d4bc 4aaa efbd 37de a33e 15c7 d1bd
00000080: fb16 b53d 2469 523e 60b9 0bbe 0db2 453e
00000090: 67bf e93e eaba 23be 4a25 09be 40d8 6bbb
000000a0: 5dce 423c 4725 4dbe 6fb2 843e 3fe3 a93d
000000b0: e01b a63e e6e4 44be 9827 9e3d ac92 0a3e
000000c0: 473e 8a3a 4f28 0fbc db19 4a3e c825 77bd
000000d0: 61a7 35bd 937b a83d 8ea4 713e 781c 5abe
000000e0: 5382 493e 9283 853d e59b 04bc 831b eb3d
000000f0: 6334 573e afb9 8039 ba81 41be 5194 9e3b
00000100: d482 29be 982a 843e 4a19 97be 9c60 fdbc
00000110: 70e0 13bd 6fc2 f03d ad5c c03d 9e2c 0a3e
00000120: 58c1 893c 969a d23d 57a0 5cbd 1274 453d
00000130: 292e f8bd 7075 c5bd 2c75 b43d 72f9 35be
00000140: a2c5 163e d237 563e 415a 2abe 8dcf 1dbc
00000150: 3f74 3cbe 97d5 b83d c9b4 843d 10eb b4bc
00000160: 77e7 40be 73eb a43d f3fe 4ebd 49db 1c3e
00000170: 4156 843d cb59 bebd 380f 21be 7ea6 5d3c
00000180: 507b f33c f0ee 35be b266 15bd 6482 8abd
00000190: ff10 efbc 823b eabd e7dc 093e c168 463e
000001a0: ed07 b5bd 86ff 3d3d c5e1 933c 2074 a3bd
000001b0: d867 ddbd d0e3 44be c7c0 023e 1332 d2bd
000001c0: 293c 82bd 462c c2bd 8576 c2bd 013b 0f3e
000001d0: 57aa b2bd d652 7cbd 4f51 aabd 0be1 2dbe
000001e0: 02bf 5a3d cd5c 53bc 16e2 fbbc 08ab 303e
000001f0: 2723 243c 316b 03be 3253 d8bd 89b0 463e
00000200: ee59 b83d 4a1b f63d 96b7 89bd f63b 92bd
00000210: 0c72 7d3c cfbb 69be 1b5e 0b3e d45a 0cbe
00000220: dcbb 6ebc ac4f cbbd 6eac 003b d81b 6d3e
00000230: 725e 34be ad22 7bbd a8d2 10be 51ed e83c
00000240: ec78 10bd b8e9 b43d 09ed c8bc 0920 16bd
00000250: 8206 44be 02c4 6abe 5b8a dabd 99b8 5ebd
00000260: b7c6 a6be f571 243e c27b a1bc b4c8 ad3d
00000270: 0414 efbc 23ac 15be afec 15be 79c1 c4bd
00000280: deec 093e 7746 b0bd 7542 b3bd 67ca 8bbe
00000290: a0d2 88be 4ca5 0cbc 1713 6b3e d9f9 693e
000002a0: 97c1 8e3d 7f67 8d3e 5d95 49be e1cf 4cbe
000002b0: 3e68 e53d cf2c 813e 8a76 863e e803 bc3e
000002c0: bac8 81be d89d ad3b 46d1 0bbe a331 9a3e
000002d0: 702d ca3d f01e e83d 4ae8 33be 71f4 913e
000002e0: e770 46bd 7aee af3d 6622 34bc 3974 21be
000002f0: 54f6 a7bd 01f9 d5bb a8d9 0f3e 8dec a6bd
00000300: a3f0 dabd 2661 5b3e 9853 3d3e 2823 8e3d
00000310: 2c3f 51bc a435 08be 9efd 873e 4f71 ed3c
00000320: 6565 41be 5d62 e23d e106 fdb9 3f1f 1bbd
00000330: 6faa 903d 1d3a 88be 8765 003d c393 83be
00000340: fdf8 80bc 6541 443e 8da0 343e 4642 603e
00000350: 037c 223e ac4e 5dbe 326e 15be 5274 dcbc
00000360: d87f 84bd 31c2 573e d6d7 e4bc 1cb0 9a3d
00000370: e3ed c93c bef7 48be 905b 89bd e15a 96be
00000380: afc9 efbe f1c3 843e 85de e3be 8765 943e
00000390: 2582 833d 54fd c1be d21d a5be 0ff7 8abe
000003a0: b059 cdbe 5d58 00be 50b1 8b3d 549e 713d
000003b0: 16a5 853e f265 d6bd 3be5 99be 8851 9ebd
000003c0: c212 39bb 6a24 9f3e 9a39 ad3d f187 e8be
000003d0: b94c 35bd 1f1d e3be c003 8dbd 36c7 f8be
000003e0: 52fc a53c 36f0 9cbe 84eb 4bbe 2d9c c73e
000003f0: 5bfe ab3e 4824 51be b4f4 9fbe f505 483e
0.19123457 -0.19427626 0.13119684 0.09558397 0.0762818 -0.04250425 -0.0126304515 0.006820293
-0.026320694 -0.019103352 0.02922494 0.052467592 0.004013191 0.1149905 -0.012200767 0.05302335
0.041385792 -0.26949167 -0.17720479 0.12725466 0.1600105 0.24024455 -0.20914376 0.2707248
0.09216084 0.19811673 -0.066897795 -0.2763652 -0.025929075 -0.11702402 0.32005474 -0.1024305
0.08842274 0.2054792 -0.13644934 0.19306202 0.4565384 -0.15989271 -0.13393131 -0.003598705
0.011890021 -0.20033751 0.25917384 0.08295297 0.32443142 -0.19227943 0.07722396 0.13532513
0.0010547125 -0.008737638 0.19736426 -0.060338765 -0.044349078 0.08226695 0.23597929 -0.21299922
0.19678621 0.06519236 -0.008093809 0.11479857 0.21016078 0.00024552408 -0.18897143 0.004839458
-0.16553813 0.25813746 -0.29511482 -0.030929856 -0.036102712 0.11755835 0.093926765 0.13493583
0.016815826 0.10283391 -0.05386385 0.048206396 -0.12118179 -0.0964154 0.08811411 -0.17770937
0.14723828 0.20919731 -0.16635992 -0.0096320035 -0.1840372 0.09025114 0.064797945 -0.022084743
-0.18838297 0.08052721 -0.050536107 0.15318026 0.06461764 -0.092944704 -0.15728462 0.013528464
0.029721886 -0.17766929 -0.03647489 -0.06763151 -0.029182909 -0.114371315 0.13463174 0.19375898
-0.08839402 0.046386264 0.018051991 -0.079811335 -0.10810822 -0.19227529 0.12768851 -0.10263457
-0.06359131 -0.09481101 -0.09495262 0.13987352 -0.08723896 -0.061602436 -0.0831629 -0.16980378
0.053404815 -0.012900543 -0.030747455 0.17252743 0.010018147 -0.12833859 -0.10562743 0.1940328
0.09001528 0.12016924 -0.06724469 -0.07140343 0.015469085 -0.2282555 0.13610117 -0.13706523
-0.014571156 -0.099273056 0.0019634026 0.23155153 -0.17614153 -0.061312366 -0.14142859 0.028433474
-0.03527157 0.08833641 -0.02452709 -0.036651645 -0.19143108 -0.22926334 -0.106709205 -0.054375265
-0.32573482 0.16059096 -0.019712333 0.08485547 -0.029184349 -0.14616446 -0.14641069 -0.096072145
0.13469264 -0.0860719 -0.0875291 -0.27302858 -0.26723194 -0.008584332 0.22956501 0.22849216
0.06970518 0.27618024 -0.19685884 -0.20001175 0.11201523 0.252295 0.26262313 0.3672173
-0.25348455 0.0052983575 -0.1365405 0.30115995 0.09871948 0.11334026 -0.1756908 0.28506806
-0.048447516 0.08590408 -0.010994529 -0.15766992 -0.0820128 -0.0065299277 0.14047873 -0.08150587
-0.10690429 0.21423778 0.1848892 0.06940299 -0.012771409 -0.13301712 0.26560682 0.028984694
-0.18886335 0.110539176 -0.00048261046 -0.037871595 0.07063758 -0.26606837 0.031346824 -0.2569867
-0.015743727 0.19165571 0.1763937 0.21900281 0.15867619 -0.21612042 -0.14592817 -0.026910935
-0.06469697 0.21070172 -0.02793495 0.075531214 0.024649566 -0.19625756 -0.06706917 -0.2936621
-0.4683356 0.2593074 -0.44505706 0.2898371 0.064213075 -0.37888587 -0.32249314 -0.27141616
-0.4010749 -0.12533708 0.06820929 0.058988884 0.26102513 -0.10468663 -0.300577 -0.077303946
-0.002823994 0.3108247 0.08458252 -0.45416215 -0.04426262 -0.44358155 -0.06885481 -0.48589486
0.020261917 -0.30652016 -0.19914061 0.3898634 0.33592495 -0.20423996 -0.3124138 0.19533522

sequential_14/dense_39/BiasAdd/ReadVariableOp:0 f4 [32]
00000000: 8f6d 773e 1dc4 b9bb 48b6 933e 3803 1dbd
00000010: f8d2 dfbd d35f 8e3e c3de 7e3e 53e2 3f3e
00000020: 77b7 733e c4cd 7b3e ec33 923b 05f4 0fbe
00000030: d357 debc 3474 803e 41ed 743e 4c21 903e
00000040: 9381 62bd 83f7 98bd 25ff cdbd cb88 aa3e
00000050: e9db 143e 1558 d33e 8c17 24bd a5e9 8f3e
00000060: d9c1 bcbd 6bfa 453e 3fc7 4a3e 59be 2fbd
00000070: 8ccc 8fbd 036a 7f3e 394f 5e3e b5ee f2bd
0.24162887 -0.0056691305 0.28850007 -0.038333148 -0.10928911 0.27807483 0.24889664 0.1873868
0.23800455 0.24590212 0.004461756 -0.1405793 -0.027141487 0.25088656 0.2391863 0.28150403
-0.055299353 -0.07469084 -0.100584306 0.3330749 0.14537014 0.4127814 -0.04006152 0.28107944
-0.09216661 0.19333808 0.19802569 -0.04290614 -0.07021436 0.24942784 0.21709909 -0.11861936

sequential_14/dense_38/Tensordot/ReadVariableOp:0 f4 [2, 16]
00000000: 3353 0ebe 2ac8 033d 61ca 9abd c565 54be
00000010: 52fd 92be 908a 14be 618a 283e f06d 63be
00000020: 2421 69ba 3a01 8ebe 2290 bebe b90c e43e
00000030: d414 013d 8a70 a43e 05b4 4dbe 1179 82bd
00000040: fa0a c1bf acbc bb3f d939 ce3f 15ad d8bf
00000050: 73d6 c83f b400 cebf 1dc3 c83f a526 dcbf
00000060: 53ed d23f a22d e3bf f5a7 e5bf 325b e03f
00000070: 53a7 eabf 4f56 d63f 3008 e53f 2f2b aebf
-0.13898925 0.032173313 -0.07558132 -0.20741947 -0.28708893 -0.14505982 0.16459037 -0.22209907
-0.0008893183 -0.2773531 -0.3721934 0.44540957 0.031514004 0.3211711 -0.20088203 -0.06370748
-1.5081475 1.4666953 1.6111404 -1.692782 1.5690445 -1.6093965 1.5684544 -1.7199293
1.6478676 -1.7748301 -1.7941881 1.7527831 -1.8332313 1.6745089 1.7893124 -1.3606929

sequential_14/dense_38/BiasAdd/ReadVariableOp:0 f4 [16]
00000000: 183b cc3c d43f 403b 130a b93b feaf 243d
00000010: ce91 8b3d bc1a 0c3d 6bcf 2ebd 468e 203d
00000020: 8709 0b3c 3899 613d edc8 953d 4529 ccbd
00000030: d8cf 77bc 9e2c 9dbd 0bf5 5f3d 3bad 8f3c
0.024930522 0.002933492 0.005646953 0.0402069 0.068149194 0.034205183 -0.042678278 0.039198183
0.008486158 0.05507776 0.07313714 -0.09968809 -0.015125237 -0.07674526 0.05467705 0.017538657

W0__26 f4 [1, 328, 16]
00000000: 5a08 543f f6c4 f4be cb12 02bf d22b db3e
00000010: 18db 4bbd 8653 ca3e 340e ddbe 06ed da3e
00000020: 5046 0dbf 9444 de3e 0c23 893e 6612 4bbe
00000030: f9a4 313f 6b79 cdbe b4a1 d9be 70c4 f53e
00000040: 7b2b babe 0614 cf3e 07f3 0a3f c33f 50be
00000050: 2e1b 8e3d eb3a 9dbe 0bd8 133e 29c7 90be
00000060: a449 0f3f 75fa ea3b 24ab 9abd d7a5 f43d
00000070: 76ad f3be 6f7e 553e 4698 5b3e edd3 d0be
00000080: cfd6 043f e722 0dbf b4e5 ddbe a06b 013f
00000090: 3377 48be fb14 ca3e a1c1 b9be 47f8 cc3e
000000a0: 6ae2 2abf 925c d83e e467 8a3e 62c5 ccbe
000000b0: 7ac0 213f 6326 d0be 26a6 0ebf ac4a 153f
000000c0: 8e47 00be 9a21 283e bf44 5d3e eca9 7dbd
000000d0: 2e4b 8e3e b5be f7bd 6aa9 3fbd eaad fdbd
000000e0: fe99 c33d 667a 8bbd feb3 d33a db08 53bd
000000f0: 62f4 9abe 6bf5 503e e3b5 053e f077 2dbe
00000100: 23e5 05bf 2650 233f 8233 2e3f dcde 27bf
00000110: fbf3 903e ad6d 38bf 1b5b fc3e a441 05bf
00000120: f747 313f a9d8 f1be db0b 38bf 055f dc3e
00000130: ad3b 2fbf 941f ea3e c0a5 ac3e b851 1ebf
00000140: f660 093e baf7 77bf 8185 33bf 99dd ce3e
00000150: 9ad2 543e 13df 1e3e a819 92be 0d02 3a3e
00000160: d2a8 89bf 9c03 18bd dfc0 283e dadf 26be
00000170: fb54 623f 62c7 8fbe 109a dcbe 5444 523f
00000180: 87e0 c03c 8a5f 4f3e 56ed 923e 3022 efbd
00000190: 87f2 133d f86a cfbc 7438 edbd 0be0 ef3d
000001a0: eeb1 5b3e af6b 323e b8da 663a 91b1 33bd
000001b0: f2a7 a5be 901e 2ebd e12b 373d 9da5 87be
000001c0: 656c 8cbc 1c61 593f 9aa1 1e3f 73a4 01be
000001d0: cbb0 573e 3b9e 89be 9ab1 843e 4fa8 a4be
000001e0: e3e6 4e3f 548c bb3d c9e3 6fbe 35e8 6bbd
000001f0: 0467 57bf 87b9 343d aeb8 cb3e 3d89 29bf
00000200: 092f 1b3e 94fd d9be 4fde cebe 5aea f13e
00000210: 4d7a acbd 43b2 9e3e 3d93 75be 3c50 a23e
00000220: 3d7c c8be a84f 693e 6f2c 8e3e b1aa 83be
00000230: 2f72 6d3e ecac 06be 4af8 1cbe b208 003f
00000240: f547 c4bd d262 053f e6f3 ef3e 3f8c f9bc
00000250: bfff 4d3e a86a 37be 6290 d23d 03cc 21be
00000260: c3de 033f 01a2 3f3e 098b 24be d536 553d
00000270: 0bdb 1cbf 4360 a43a 5dbe 0d3e 0053 07bf
00000280: 1915 aa3d b773 11bc 1c47 c83d 1bf2 083e
00000290: 8dc8 a4b9 8e55 173d fbc6 423d 1bb6 4bbd
000002a0: bf1e 403e 83cd 523e 3ff2 4f3d 3bb0 21be
000002b0: fdbc c5bd 38ed 25be 3882 e2bd dfcf 38be
000002c0: 3fc3 dbbc f524 623e 2647 24bd 2206 70bd
000002d0: b7df ae3d 2693 11be 8b75 e43d 3b96 fbbd
000002e0: 27e1 a93e d624 08be 8c36 05bd 1e51 673d
000002f0: 5ae3 81bd 0163 953b e684 a03e 1627 06be
00000300: 4244 ffbc 8a20 adbe c419 8ebe b284 353e
00000310: 039c d3be 07bf d1bc eb7f 5cbe 1860 443e
00000320: 7d4a b7bd 5579 433e 66c7 a23c 4605 ef3a
00000330: fbc9 813e 5ca5 e6bd d657 1a3e d352 613e
00000340: 7276 6a3e 8d6e 22be 0183 4bbc 160d 5c3d
00000350: c110 23be f85f 093e 9d76 afbd 225c b53d
00000360: 0c02 b3bd 2a1b 013e 545c 413e 1445 6ebe
00000370: 50b0 1d3e 1c57 c0bd 4bca 26bd 0141 ac3d
00000380: 6fee 2cbd 9950 4c3e 2966 333e 293f 3d3d
00000390: a981 cbbd d6bc 48bd 9b69 81bd 4f56 213d
000003a0: 5d20 f53d 4f64 2c3c 8029 6dbc e8d3 27bb
000003b0: ef12 74bd a65b 123e b042 b3bc d17b 02be
000003c0: 0dc6 423f 0541 c6be cd5a a4be 9e7c 133f
000003d0: ba78 32bf b887 d23e 7081 3bbf 2d9c f93e
000003e0: 58bc 83be 94ca 573f e943 8a3d 42e0 11bf
000003f0: a090 243f 24f0 11bf ff15 3ebf ad7c bb3e
0.82825243 -0.4780652 -0.50809926 0.4280687 -0.04976949 0.39516848 -0.431749 0.4275896
-0.55185413 0.43411696 0.2678455 -0.19831237 0.69392353 -0.40131697 -0.42506182 0.48001432
-0.36361298 0.40444964 0.5427708 -0.20336823 0.06938778 -0.30709013 0.14437883 -0.28276947
0.5597174 0.00717097 -0.07552174 0.11945694 -0.47593278 0.20849012 0.21444806 -0.40786687
0.5189027 -0.5513138 -0.43339312 0.5055485 -0.19576721 0.39469132 -0.3628054 0.4003317
-0.6675173 0.42258126 0.27032387 -0.3999434 0.6318432 -0.40654287 -0.5572227 0.58317065
-0.12527296 0.16419068 0.21608256 -0.06192963 0.27791733 -0.12096921 -0.046792425 -0.12386687
0.09550856 -0.06810455 0.0016151664 -0.051522117 -0.30264574 0.2040612 0.13057666 -0.16940284
-0.5230276 0.6379417 0.68047345 -0.6557443 0.28311142 -0.7204235 0.49288258 -0.52053285
0.69250435 -0.4723561 -0.7189309 0.43041244 -0.68450433 0.45727217 0.33720207 -0.6184344
0.13415894 -0.96862376 -0.70125586 0.4040344 0.20783463 0.15514784 -0.285352 0.18164845
-1.0754645 -0.037112817 0.16479824 -0.1629633 0.8841092 -0.28081805 -0.4308629 0.8213551
0.023544563 0.20251289 0.28696698 -0.116764426 0.036119964 -0.025319561 -0.11583033 0.11712655
0.21454594 0.1742389 0.00088063953 -0.043870512 -0.32354695 -0.042509615 0.04471958 -0.2649354
-0.01714153 0.849138 0.61965334 -0.12660389 0.21063535 -0.26878533 0.2591675 -0.3215966
0.80821055 0.09157625 -0.23426737 -0.057594497 -0.84141564 0.044122245 0.39789337 -0.66225034
0.15154661 -0.42576277 -0.40403983 0.4724911 -0.084217645 0.30995378 -0.23981948 0.3170184
-0.39157286 0.22784293 0.27768275 -0.25716165 0.23188089 -0.13151902 -0.1532909 0.5001327
-0.09584037 0.5210391 0.46865767 -0.030462382 0.2011709 -0.1791178 0.10281445 -0.1580048
0.5151178 0.18714143 -0.16068663 0.052054245 -0.61271733 0.0012540895 0.13842149 -0.5286102
0.08304805 -0.008877686 0.09779188 0.13373606 -0.0003142994 0.036946826 0.047553044 -0.049734216
0.18761729 0.20586209 0.050768133 -0.15789883 -0.09655187 -0.16203773 -0.110599935 -0.18048047
-0.026826499 0.2208441 -0.040106915 -0.0585996 0.08538764 -0.14216289 0.11155232 -0.122845136
0.3317959 -0.13295302 -0.032522723 0.056473844 -0.06342192 0.0045589213 0.31351393 -0.13100848
-0.031160478 -0.33813888 -0.27754033 0.177264 -0.41329965 -0.025603784 -0.21533172 0.19177282
-0.089497544 0.19089253 0.019870471 0.0018235825 0.2534941 -0.112620085 0.15072569 0.22004251
0.22896746 -0.15862484 -0.0124213705 0.053723417 -0.1592436 0.13415515 -0.085675456 0.088554636
-0.08740625 0.12608019 0.18882877 -0.23268539 0.15399289 -0.09391615 -0.040720265 0.08410836
-0.042219575 0.1995262 0.1751944 0.046202812 -0.0993684 -0.049008213 -0.06318971 0.03938895
0.119690634 0.010521962 -0.014475226 -0.0025608484 -0.05958837 0.14292774 -0.021882385 -0.12742545
0.7608345 -0.3872148 -0.32100525 0.57612026 -0.69715464 0.4111917 -0.7324438 0.48751965
-0.25729632 0.84293485 0.06751234 -0.56982815 0.6428318 -0.5700705 -0.74252313 0.36618558

R0__27 f4 [1, 328, 82]
00000000: 1163 893e 3909 7fbe b826 10be 81fa 163e
00000010: 9797 823e 9106 b83c 8be7 d0bd 3740 e8bd
00000020: f69c b2be 7b7e 94bd 5be5 cabd 19f0 98bc
00000030: 2ebb ea3d d9b5 9a3d 00d0 95be 0090 4ebc
00000040: 9a53 a1b8 9aea 4d3e a52b 243e ff26 e23d
00000050: d165 6ebe c192 37be d7c3 2a3e 3fce 4cbe
00000060: 2f26 b53d bd1b 873d f323 92bc 9099 f1bc
00000070: 6585 acbd b3fd 3cbe 56ec 1fbe 2eba 70be
00000080: 95b4 0a3e 0fe4 17bd 6760 a63e 95dc 58be
00000090: 214c 7b3c 4df0 8e3d 901e 4abe 78ca fb3d
000000a0: 25da c6bb 5189 2cbc 2ee1 09be 3dd7 d0bd
000000b0: 5d23 a8be cfcd 0a3e 815b 9ebd 3815 743c
000000c0: 7917 aa3e f643 9bbd 1be1 cbbc d22a 23bd
000000d0: fb61 b63d ba76 63bc 0f7a 863e c882 ed3d
000000e0: 6143 c0bd 56db fb3c adda 003e 373e 63be
000000f0: 48e9 fc3d b0f9 81bd 1325 d3bc 7e4d 98bd
00000100: 4eca aabd 90d6 173e 252a 07be c77e 163d
00000110: c1c5 243e 79fa db3c affb 1c3e 5a0c c93d
00000120: 466a 243d e568 6c3d 77e2 5f3e de83 7abe
00000130: 146c a7be 15b1 fc3c 4cb7 f3bd 2261 0e3e
00000140: c119 713e 01b2 2d3d af1a 283d ef03 b8bd
00000150: 4cf1 a93b acde 643b 1a97 72be f574 51bd
00000160: c428 f93c f0cc 2fbd 22d8 bb3d 3509 00bc
00000170: 5d90 b63d 0fd5 b53d 7fff 89be 297b 373d
00000180: 31cd d4bc c860 c8bd bcbc 96bc 657c 3cbd
00000190: ccca 333e ae75 14be 62e4 b23d 13bc db3c
000001a0: f47a c1bd 75ac 583e a31c 05be 32bd 32bd
000001b0: 20d2 0cbc 61df a8bd a49d 203e 7ede 603e
000001c0: c588 703d b589 263d 319d 50bd b0b1 7bbc
000001d0: febd 5dbe 3d94 a63d ad63 4cbe 84ce 74bd
000001e0: 5240 adbd f540 6fbd 51d7 20be 657c 51bc
000001f0: 3ead 1abe f4a5 5b3e 861d 2cbe 36dc 3e3e
00000200: 9e34 80bc bfb5 89be 7005 e6bd 8e60 17bc
00000210: 5a45 fabd 3337 c3bd 2eba 78bd 05f2 4c3c
00000220: f7cd 9dbd 32f8 d8bd 3e10 013d 6294 cb3d
00000230: 635f 023e eeed 35bd 5022 a13d 82ad 5e3e
00000240: 84b6 a8bd f4c5 e33b a495 493c abaf cdba
00000250: 4323 abbd b5cc 593e e864 3c3e 0699 64bc
00000260: b91f 02bd 2d1e 89bd 0327 d43d 47ae 343d
00000270: e595 b5bd 3459 8fbd c8dc a03d cd43 f4bc
00000280: aea7 e83c 7777 d93c ac6b 41be 5726 623e
00000290: 3b5c 5a3d d752 63be b0ab 2e3e f29e 5e3e
000002a0: 1655 b73e a427 94be aa90 5c3d 6ee9 e8bc
000002b0: 1517 d53c 1f61 31bc d039 cc3b 5594 9f3d
000002c0: 8222 ab3e bb54 103c 787c 2dbe 761d 343e
000002d0: cee5 033e 76c6 903d 27d8 f13d 2e63 bc3c
000002e0: 86a5 1bbe 3e5e e7be b892 9e3e 212b 1bbe
000002f0: 03df 953c c58e dfbc 00a7 7a3c 734e dbbd
00000300: 7c63 7e3e 0c60 82be 34de 43be ec59 1dbe
00000310: 434a ff3d 705b bdbe 3cf6 66bb dfc8 75be
00000320: c8a5 29bd 2aee af3e 3c47 783e a36a 473e
00000330: 868d 323d ba50 3bbe cfb8 19be 767e 2c3e
00000340: b589 d7bd a639 203e ad8c 303e 80e3 53be
00000350: fe63 cc3e dd88 72be 20c7 5abe 2354 e73d
00000360: 1f96 203d b82c 0c3e 7d09 b33b 35d9 743e
00000370: 6f77 f3bc 0476 01bc ba45 14bd d936 8bbe
00000380: 3661 31be 91bb 56bd dd80 e8bd be46 413c
00000390: b5b5 2cbe 7182 383e 6880 d0bd 2339 8fbc
000003a0: 6a59 a73e 29dd 0cbe 802f e53d fc54 533c
000003b0: 5430 e9bb a7cd 173e 5daa be3d 2f38 5e3d
000003c0: 7c87 22be 73eb 00bd 8829 d738 a8bd e23d
000003d0: 76ce 683e 4836 6b3e edef 6b3e 8461 273e
000003e0: cac5 aa3d daca 96bd a108 84be 3b99 19bd
000003f0: 704e b53d 55da 913d 4924 623b 0a33 b83d
0.26833394 -0.24905862 -0.1407727 0.14743997 0.2550628 0.022464069 -0.10200413 -0.11340373
-0.34885377 -0.07250687 -0.09907027 -0.018669175 0.11461483 0.07554216 -0.29260254 -0.012607574
-7.69265e-05 0.20109025 0.16032274 0.11042594 -0.23281027 -0.17927076 0.1667627 -0.20000552
0.088451736 0.065970875 -0.017839408 -0.02949217 -0.084238805 -0.18456154 -0.15617499 -0.23508522
0.13545449 -0.037082728 0.32495424 -0.21177895 0.015337975 0.069794275 -0.19738221 0.12294477
-0.0060684853 -0.010530786 -0.13464805 -0.101973034 -0.3283948 0.13555072 -0.07732297 0.014897637
0.33221033 -0.07581322 -0.024887612 -0.03983576 0.08905407 -0.013883287 0.26264998 0.1159721
-0.093878515 0.030744236 0.12583418 -0.22191702 0.12349182 -0.06346452 -0.025774514 -0.074366555
-0.08339368 0.14827943 -0.1319967 0.036741998 0.16091062 0.026852833 0.15330385 0.09816809
0.040140413 0.057717223 0.21863733 -0.24464366 -0.32699645 0.030846158 -0.119001955 0.1390424
0.2354498 0.042406086 0.041041072 -0.08985125 0.0051862355 0.0034922762 -0.23690453 -0.05113693
0.030414946 -0.042920053 0.091720834 -0.007814695 0.08914254 0.08878528 -0.2695274 0.04479519
-0.02597675 -0.097840846 -0.018400542 -0.04601707 0.1755783 -0.14498016 0.08734967 0.02682308
-0.094472796 0.21159537 -0.12999205 -0.043637462 -0.00859502 -0.08245731 0.15685135 0.21959874
0.058724184 0.04065867 -0.05093116 -0.015362188 -0.21654508 0.08133743 -0.19959898 -0.05976726
-0.08459534 -0.058411557 -0.15707137 -0.012786006 -0.15105149 0.21450025 -0.16808137 0.18638691
-0.01565009 -0.26896474 -0.11231506 -0.009239329 -0.12220259 -0.09532013 -0.06072443 0.012508874
-0.077053 -0.105942145 0.03150963 0.09940411 0.127317 -0.04441636 0.07867873 0.21745875
-0.08237937 0.006951088 0.0123037435 -0.0015692612 -0.08356335 0.21269496 0.18397868 -0.013952499
-0.031768534 -0.06695209 0.103590034 0.044111516 -0.08866481 -0.06999436 0.07854611 -0.029817486
0.028400268 0.026546223 -0.1888873 0.22084938 0.053310614 -0.2219957 0.17057681 0.2174032
0.35807103 -0.28936493 0.0538489 -0.02843162 0.026011983 -0.010826378 0.0062324777 0.07791964
0.33424765 0.008809264 -0.16942012 0.17589363 0.12880632 0.070691034 0.11808806 0.022996511
-0.15199861 -0.4518909 0.30971313 -0.15153171 0.018294817 -0.027289758 0.015298605 -0.107083224
0.24842638 -0.25463903 -0.19127733 -0.15366334 0.12465336 -0.36983824 -0.0035241982 -0.24002407
-0.041417867 0.34361392 0.24245924 0.19474272 0.043592 -0.18292513 -0.15011905 0.16845116
-0.105243124 0.15646991 0.17241164 -0.20692253 0.39920038 -0.23685022 -0.21365023 0.11295345
0.039205667 0.13688934 0.0054637776 0.23910983 -0.029720036 -0.007901672 -0.03619931 -0.27190283
-0.1732224 -0.05242497 -0.11352704 0.011796651 -0.1686619 0.1801851 -0.101807415 -0.0174833
0.32685405 -0.13756241 0.111907005 0.01289868 -0.007116357 0.14824544 0.09309838 0.0542528
-0.15871996 -0.031474542 0.00010259735 0.1107133 0.22735009 0.22969925 0.23040743 0.16345793
0.083385065 -0.073629096 -0.25787833 -0.037499648 0.088528514 0.07121722 0.003450649 0.0899411

B0__28 f4 [1, 656]
00000000: 3702 4bbe 66ce 333e 7243 ebbd 2459 ee39
00000010: 4c63 743e d173 81be aae5 e1bd 317e 4abd
00000020: 2710 0abe 78fa 8bbd 1163 6fbd c077 e03d
00000030: 06b1 e23e 6783 c6bd 477e d53c 43bf 663f
00000040: bdf5 02be 83c7 9f3d d7b6 7b3c f023 23bc
00000050: 5356 10bc 831f da3e e649 703f bf55 8cbd
00000060: 5e3b b23d a469 103c 09c2 39bd 6ba3 823d
00000070: 558c eb3e 050b 493e 5e71 e3bd b367 8ebd
00000080: bda4 5a3b d3b7 82bd 2f51 6a3e 3b96 403e
00000090: 5094 17be 3e6d 803e 7783 57be a04d 813d
000000a0: 5763 82ba 6542 56bd 164f 613d 21ce 1d3e
000000b0: 3a3a febd 0078 0e3e 68ee 0cbe f077 bd3e
000000c0: 3916 273f 14fa 373f d9a7 aa3d bda7 9abd
000000d0: 78e5 873e fae8 9f3e 4391 c7bd 1834 0e3d
000000e0: be14 20be 7d48 87bd bc61 37be b2ec 40bd
000000f0: d9d9 76be 1421 3cbd 84de bb3c 57c0 4f3e
00000100: 6733 e2bd ad9b 493e 483d b7bc bdca 243d
00000110: 021d 883e 430d 2cbe 2bfa 093e 0662 c2bd
00000120: 78ca acbd 6441 663e 6bb7 6d3d f9a3 1abe
00000130: e2a3 9cbc 5d07 e6bd 8cb2 a0bd 21a1 143c
00000140: 4bc0 0bbe d4d8 913e 9af8 45be 2de6 eb3d
00000150: f79b 74bd 63be aa3c 0b76 8f3e 0fa0 5d3e
00000160: 56bf e1bd a7eb a53d c432 00be c719 143c
00000170: b2d7 9dbd cd08 8e3d e19d a33e 88b8 89bd
00000180: 7dd6 af3d f007 733f 5358 513d a2ea 9e3d
00000190: f155 813c 1b17 f0bc cf69 c7bc e51e e93e
000001a0: 03ba 7f3f c86d 9dbd d6b6 1a3e c9c7 40bd
000001b0: cf41 6bbd bcf8 4f3d f3b1 d63e b4e8 4f3e
000001c0: dd12 0bbd 4f3f 1cbd a4a8 433c d196 dabc
000001d0: 5c58 943e 1aa9 003e 80b0 0abe f9e8 783e
000001e0: 685b 5ebe 0c18 453b 54dd 86bc 0e17 313d
000001f0: 313d 9a3d d819 a23d ed36 05bc 62e7 bc3d
00000200: 167c ee3d 1dfb 193e 657a 3a3f 2a98 373f
00000210: 53ef 8e3d db05 d4bd fb62 2d3e cabe 613e
00000220: fc34 debd 0496 0f3e 0178 f3bd fc00 c93c
00000230: 2eed 4bbe d0cf 32bd e7c3 77be 1c20 2d3d
00000240: 1f54 253d a177 9d3e dbd1 193e 336e 883e
00000250: 8aec 433c 05dd d03d 5375 f53e 6130 5fbc
00000260: e4b7 c63d 7c3b c5bd 5767 b1bd 3f70 483e
00000270: b5ee 783e 1a6f 0fbd 03c5 f33d 912b bdbd
00000280: b756 00bd fc90 a6bc e504 09be dda3 7f3e
00000290: e8a2 623f 2344 4c3f 8a27 783f 50a2 5b3f
000002a0: 257b 633f a633 8e3f 6569 6c3f f519 743f
000002b0: e8da 563f 37fe 6c3f a76c 393f c6dd 523f
000002c0: aeda 303f abf0 6a3f ba52 643f 6a6e 083f
000002d0: f0f5 893f 5532 4a3f 8e39 693f a08d 423f
000002e0: f759 553f 31d8 5f3f 546c 133f 21b6 353f
000002f0: 3018 773f 8792 5b3f 198c 553f e69d 5d3f
00000300: eea3 253f 6da3 533f 3736 643f 642b 4e3f
00000310: 0052 913f 9aba 753f 2db5 583f 5e93 5c3f
00000320: 76c8 5c3f 2deb 4b3f f47f 343f 75b7 763f
00000330: 18a1 763f cddd 643f a565 6a3f 745a 473f
00000340: 9017 6a3f 7a9b 4a3f 61cb 953f 9646 4b3f
00000350: d440 483f 4040 643f 5a98 623f 5695 833f
00000360: 48a9 4a3f 5645 473f dc1c 803f f4ec 443f
00000370: a854 6c3f 350c 633f f76e 683f 48f2 423f
00000380: a248 593f 0f63 6b3f efcd 573f dd2e 453f
00000390: f8fe 8b3f 8873 5b3f cab3 583f 01df 573f
000003a0: 185c 4c3f 8049 693f 872f 5b3f 4933 663f
000003b0: 66f3 753f 8750 4e3f baed 673f 9a30 863f
000003c0: 9794 733f d35f 793f 6e10 6b3f e42d 4e3f
000003d0: 250f 3a3f 293b 633f 7876 37bd eefb 88bc
000003e0: 4f86 2b3d 9f11 833c 4dc0 e7bc 3b54 073d
000003f0: 61a3 34bc a090 40bd bede a63b 1dd1 24bd
-0.19825064 0.17559204 -0.114874735 0.00045461312 0.23866004 -0.25283673 -0.11030133 -0.04943675
-0.13482724 -0.068348825 -0.058444086 0.109603405 0.44275683 -0.09693032 0.02606119 0.9013559
-0.12789054 0.07801726 0.015363417 -0.009957299 -0.008809644 0.42602167 0.9386276 -0.06852292
0.0870273 0.008814249 -0.045351062 0.06378826 0.46005502 0.1963311 -0.111056075 -0.06953373
0.0033362352 -0.06382718 0.22882532 0.18807308 -0.1480267 0.25083345 -0.21046244 0.06313634
-0.0009947818 -0.052309413 0.055007063 0.15410663 -0.124134496 0.13912964 -0.1376282 0.37005568
0.65268284 0.71865964 0.08332796 -0.07551525 0.26542258 0.31232435 -0.09744503 0.03471765
-0.15632913 -0.06605623 -0.17908376 -0.04710073 -0.2410654 -0.045929983 0.022933252 0.20288216
-0.110449605 0.19688292 -0.022368088 0.04023241 0.2658463 -0.16801934 0.13474338 -0.09491353
-0.08437055 0.22485882 0.05803625 -0.15101613 -0.019121114 -0.11231873 -0.07846555 0.009071619
-0.13647573 0.2848574 -0.19333115 0.11518512 -0.059719052 0.020842737 0.28019747 0.21643089
-0.110228226 0.08101588 -0.12519366 0.009039349 -0.07707156 0.06935272 0.3195639 -0.0672465
0.08585832 0.94933987 0.051109623 0.077595964 0.01578805 -0.029307893 -0.024342446 0.45531383
0.99893206 -0.07686955 0.15108809 -0.04706553 -0.057435807 0.05077432 0.4193264 0.20303613
-0.033953536 -0.038146313 0.0119420625 -0.026683243 0.28973663 0.12564507 -0.13543892 0.24307622
-0.21714556 0.0030074148 -0.01646296 0.043234877 0.075312026 0.079150856 -0.008130771 0.0922382
0.11644761 0.15037198 0.7284301 0.7171656 0.06979241 -0.10352679 0.1693229 0.22045437
-0.1084995 0.1402207 -0.11888123 0.024536602 -0.19914696 -0.043655217 -0.24195825 0.04226695
0.040363427 0.30755332 0.1502146 0.26646575 0.011958251 0.10198406 0.47941074 -0.013622374
0.09703043 -0.09630486 -0.08662289 0.19574068 0.2430981 -0.035018064 0.119028114 -0.09236825
-0.031332698 -0.020332806 -0.13380773 0.24964853 0.88529825 0.7979147 0.9693533 0.85794544
0.8885978 1.1109512 0.9234832 0.9535211 0.83927774 0.925754 0.72431415 0.8236965
0.6908368 0.9177348 0.8918873 0.5329348 1.0778179 0.7898305 0.91103446 0.7599735
0.833404 0.87439257 0.5758717 0.7098103 0.9652128 0.8577046 0.834169 0.8656906
0.6470326 0.8267124 0.89145225 0.8053496 1.135315 0.95987856 0.8465145 0.86162364
0.8624338 0.79655725 0.7050774 0.96373683 0.9633956 0.8940094 0.9156135 0.77872396
0.91442204 0.7914349 1.1702691 0.7940458 0.7822392 0.8916054 0.8851372 1.0279949
0.7916455 0.77840173 1.0008807 0.7692406 0.92316675 0.886905 0.9079432 0.7615094
0.84876454 0.91948026 0.84298605 0.7702463 1.0937185 0.8572316 0.84649336 0.8432465
0.79828024 0.9112778 0.85619396 0.89922005 0.9607452 0.80591625 0.90597117 1.0483582
0.95148605 0.9741184 0.91821945 0.80538774 0.7267936 0.88762146 -0.044790715 -0.016721692
0.041876134 0.015999613 -0.028289938 0.033039313 -0.011025281 -0.047012925 0.005092471 -0.04023849
